Assets/Models/raycast_behavior.onnx (onnx, 79314 bytes, 8 tensors)

network_body._body_endoder.seq_layers.0.weight f4 [128, 8]
000000 75 de 10 3e 94 7d 9d be 10 97 c3 bd a3 4b c1 bd
       0.1414736 -0.3075987 -0.09550297 -0.09438255
000010 e8 1c a8 be f9 71 4d 3c ab f9 90 be 3c 0f df 3e
       -0.32834554 0.01253938 -0.28315482 0.4356631
000020 a9 fd f9 bd 89 58 fb 3d 97 46 c0 bd 78 e0 12 be
       -0.12206585 0.12272746 -0.09388464 -0.1434344
000030 c7 29 ae 3c 78 c1 6f 3b 2f 90 42 3e 44 e2 b2 be
       0.021260155 0.0036583822 0.19000314 -0.34938252
000040 f5 5f a7 3e 28 2a 52 3e 4e 18 eb be 38 60 a7 3e
       0.32690397 0.20523894 -0.4591698 0.32690597
000050 71 05 af be 75 72 a6 be cf b4 7d 3c 4e 87 d0 be
       -0.3418384 -0.325092 0.015485003 -0.4072823
000060 1f ae c3 3d 80 c6 4d be 4f ed f1 3e d1 01 14 3e
       0.09554695 -0.20095253 0.47251365 0.14453818
000070 54 43 9f 3e b5 15 09 3f 9d fc d9 3e d2 0a ec 3d
       0.31106055 0.5354875 0.4257554 0.11525501
000080 6b 5a 6a 3b 85 d0 2c bf 5e 7c 99 3e 86 11 3b be
       0.003575946 -0.67505676 0.29977697 -0.18268403
000090 bc ab 91 3e 2a 85 c8 3e 3b 94 2c be 50 15 51 be
       0.28451335 0.39164096 -0.1685342 -0.20418286
0000a0 b8 dd f5 3d bf 64 26 3e a3 6b f8 be 9f ef d1 be
       0.1200518 0.16249369 -0.4851962 -0.4100313
0000b0 c5 63 9c be 42 fa 9c be f6 69 60 be bc 73 cf be
       -0.30544868 -0.30659682 -0.21915421 -0.40517986
0000c0 79 41 2b 3f c2 b4 f0 3d 0a 21 06 bf 64 cc 57 be
       0.6689678 0.11753227 -0.52394164 -0.21074063
0000d0 db c4 a0 be b5 4c 34 3e 16 9b 99 3c 57 12 5b 3e
       -0.3140019 0.17607386 0.018750709 0.21393715
0000e0 91 13 8c be 3a 45 44 3d a8 40 3c 3f 26 89 60 be
       -0.27358678 0.047917582 0.7353616 -0.21927318
0000f0 6b 43 98 be 31 0a 9d 3e 26 78 24 bf a1 b5 77 be
       -0.29738936 0.30671838 -0.6424583 -0.2419038
000100 2b 1e bb bd a7 df 8a be 0d f8 f0 3e 47 31 6c be
       -0.091366135 -0.27123758 0.47064248 -0.23065673
000110 1d fe 19 3f cf 06 4a be 85 e0 42 3e fa aa 9b 3e
       0.6015337 -0.1972916 0.1903096 0.30403882
000120 a2 85 9d 3e d5 c1 a8 be bd d1 a3 3e 82 60 20 3e
       0.30766016 -0.32960382 0.31995955 0.15661815
000130 18 85 cb be b9 75 35 be 11 a5 2c be e7 8b 17 3f
       -0.3974998 -0.17720689 -0.16859843 0.5919785
000140 e2 90 bd 3e 15 ba 32 be f6 b2 af 3e 15 a3 fc be
       0.370246 -0.17453797 0.34316224 -0.49343172
000150 d8 aa af be 45 12 b5 bd 3e 24 4c 3d 9e 2c d9 be
       -0.3431003 -0.08841375 0.04983925 -0.42416853
000160 37 aa e4 be 2a 09 31 be 45 03 7a 3e 1c 66 9f be
       -0.44661114 -0.17288652 0.2441531 -0.3113259
000170 26 93 0a be 2b d2 3d be d4 dc 03 3f a0 0c 44 bf
       -0.13532695 -0.18537204 0.5150883 -0.76581764
000180 d9 a5 a6 be e9 c5 6e be c8 ae a9 bd e4 a2 9f be
       -0.32548407 -0.23317684 -0.0828529 -0.31178963
000190 48 e0 3f 3e 46 41 9b be 8a ab 25 3f af 96 e2 3e
       0.187379 -0.30323237 0.6471487 0.44255587
0001a0 b6 4c 84 3e b0 4b 86 be 03 53 a7 bc 0d 48 11 3e
       0.25839776 -0.2622962 -0.020425325 0.14187641
0001b0 3b dd db be 18 1f 30 3d 07 14 07 bf aa f1 a9 3e
       -0.42942223 0.042998403 -0.52764934 0.33192188
0001c0 57 9e a0 be 60 83 0c be e5 a8 f9 be b7 c1 94 be
       -0.31370804 -0.1372199 -0.4876167 -0.29054043
0001d0 ce 9f 05 bf ea f4 b2 be ee af d6 3e 21 48 0a be
       -0.5219697 -0.3495248 0.419311 -0.13504077
0001e0 cb 54 24 be bc b2 fc 3d f2 7a 67 3e de ed a3 3e
       -0.16047971 0.123387784 0.22605494 0.32017416
0001f0 89 62 50 3e d0 5c 7b 3e 22 47 e9 be ec 5b 59 be
       0.20350088 0.24547124 -0.45562083 -0.21226472
000200 8d 4d bd bd 1b 1e 44 3d 45 ec 12 bf 73 48 46 be
       -0.09243307 0.047880273 -0.5739177 -0.19363575
000210 c1 23 99 3e 87 84 a1 3e c1 30 34 3e 69 fc 02 bd
       0.2991009 0.31546423 0.17596723 -0.031979
000220 8b 58 b4 3e ea 55 18 bf 84 70 bb 3d e6 4a 55 be
       0.35223803 -0.59506094 0.0915232 -0.20829353
000230 de 43 08 bf 29 02 93 be 5d 6b 19 3f 45 7d 62 3f
       -0.5322856 -0.28712586 0.5992945 0.88472396
000240 eb d8 ae 3e 4d d1 a4 bd 70 1b 31 3e e3 e3 2d bd
       0.3414987 -0.080477335 0.17295623 -0.042453658
000250 28 31 24 be e5 c7 52 bf 0c 8a c4 3e 99 a1 49 bd
       -0.16034377 -0.82336265 0.3838657 -0.049226377
000260 bc 12 07 be aa c6 3b 3e ed 19 ee 3d 1a 56 89 3d
       -0.1319074 0.18337503 0.11626039 0.06705876
000270 0c bd a7 3e ac 01 69 3d 7f 57 55 bd 2a e1 f5 be
       0.3276142 0.05688636 -0.052085396 -0.4802335
000280 5a 24 78 3e bd 56 2a 3f af 53 1c be 52 73 76 3e
       0.24232617 0.665386 -0.15266298 0.24067429
000290 23 9b 09 bf d9 cc 35 be d0 00 1b bd e6 fc 85 3c
       -0.53752345 -0.17753924 -0.03784257 0.016355943
0002a0 fe b9 25 3f 0e e1 0b 3e 60 a4 54 be 73 c0 02 3e
       0.64736927 0.1366007 -0.20765829 0.12768726
0002b0 6c 3f 0f be 4e 91 07 be ed 8c 18 3e 7d 44 b8 3e
       -0.13989037 -0.13239023 0.14897509 0.35989752
0002c0 29 20 c2 bd b6 6b 93 3d 89 df 0d 3e fb aa 9f 3c
       -0.0947879 0.071982786 0.13854803 0.01949071
0002d0 9c 38 4b bf 3d 59 f9 bd f3 d4 8b 3e 31 0d cc be
       -0.79383254 -0.12175224 0.27310905 -0.39853814
0002e0 93 3c f6 3e 01 c6 1d bf 1c d3 77 3f dc 70 95 be
       0.4809309 -0.61630255 0.968065 -0.29187667
0002f0 2a 4c ce 3e df b6 da be 5a f9 f4 3d 4d 56 25 bf
       0.40292484 -0.42717645 0.119616225 -0.6458481
000300 12 f0 4a 3f 8e 29 07 be ab 04 43 bd b0 96 28 bf
       0.7927257 -0.13199446 -0.047611874 -0.6585493
000310 3b ee 2e 3e 58 31 ed be ca c0 ab 3e 78 06 c2 3e
       0.17083065 -0.4632671 0.33545524 0.3789556
000320 59 ca 07 3e c0 61 6c bd 83 f3 2f be b0 05 7d 3e
       0.13260783 -0.05771041 -0.17182736 0.24709201
000330 4e e9 13 3f e1 77 5d 3e de 04 d2 3c 55 e9 17 3f
       0.5777787 0.21627761 0.025637086 0.5934041
000340 5d 0a 75 3e 29 95 11 3e b2 5b c7 bc d7 79 99 be
       0.23929735 0.14217056 -0.024335716 -0.2997577
000350 1b 51 fc be 9e d6 3c bd 71 52 c7 3d 20 ea 86 be
       -0.4928063 -0.046103112 0.09732521 -0.26350498
000360 14 36 b6 3e 0b 4b ae 3e b4 1d 25 be 52 d8 3c 3e
       0.35588133 0.34041628 -0.16124612 0.18441895
000370 c4 a0 35 3f ac e0 ac 3e d2 76 eb 3e 4d 1e e8 3c
       0.70948434 0.3376516 0.4598909 0.028334761
000380 a7 44 bb 3e 8a f3 d4 be 3b 46 d9 3d 42 f5 72 3e
       0.36575815 -0.41592056 0.106090985 0.23726371
000390 a6 54 8b be 5c c4 59 bd 1b 6e 8e 3e b8 15 b4 3e
       -0.2721302 -0.05316578 0.2781838 0.3517282
0003a0 cf 0f c0 3c ba bd b3 bd e8 92 b2 bd 27 22 c4 be
       0.023445038 -0.08776422 -0.087194264 -0.38307306
0003b0 99 05 28 bd e0 9a d3 bd 11 05 87 3e 8f 6a 23 bf
       -0.041020963 -0.103322744 0.26371053 -0.6383447
0003c0 b0 5e 83 be 11 c7 33 3f 29 dd 74 be cb 18 b3 3d
       -0.25658178 0.70225626 -0.23912491 0.08744963
0003d0 ba b9 0e bf 6a 2c 9e 3e 72 77 22 bf 12 71 16 3d
       -0.55752146 0.3089326 -0.6346351 0.036728926
0003e0 ea bb 62 be 34 79 1d 3e bf 34 0d 3f eb 10 b2 3e
       -0.22141996 0.15378267 0.5515861 0.34778532
0003f0 95 f9 c3 3e 03 f9 01 bf 7f 99 92 3d 09 4b 7c 3e
       0.38276353 -0.50770587 0.07158183 0.24637999

network_body._body_endoder.seq_layers.0.bias f4 [128]
000000 e8 4a 17 bc 1d da bc 3c 98 ff 50 bc 87 05 9e 3c
       -0.009234168 0.023053223 -0.012756251 0.019289745
000010 7d 53 50 3c 96 1f 33 38 cb 10 64 3b 20 2f 0a bc
       0.012715218 4.2706342e-05 0.0034800048 -0.008434087
000020 ad 02 50 3c 2a 9e 15 bc 53 17 44 bc d2 dd 76 3c
       0.01269595 -0.0091319475 -0.011968452 0.0150675345
000030 de 56 9d 3c 4a e4 ba bc d8 08 47 bb 5a 76 9b ba
       0.01920646 -0.022813935 -0.0030370262 -0.0011860833
000040 6d 0a 71 3c 69 6e 9e 3b 5f e0 09 bc ed 3b e7 3b
       0.014711958 0.0048349393 -0.008415311 0.0070567043
000050 61 52 f1 bb a7 a8 78 bb 15 37 49 bc 91 25 91 ba
       -0.0073645567 -0.0037942322 -0.012281199 -0.0011073818
000060 96 d2 7f 3b cc aa 97 3c 68 1f 2d bc 2a fd 89 3c
       0.003903543 0.01851406 -0.01056657 0.01684435
000070 2a 3d 49 3a 19 51 56 3c f0 53 58 bc e7 cf 1f bc
       0.00076766557 0.013080859 -0.013203606 -0.009754158
000080 f4 8d 8e 3b c1 8e 9b bc 06 64 85 3c e1 5d 21 bc
       0.004350418 -0.018988969 0.016283046 -0.009849043
000090 5f 39 9c 3c fc 14 84 bc 32 06 0e bc 66 a6 4d bb
       0.019070325 -0.016123287 -0.008668469 -0.0031379699
0000a0 89 6a 22 bc eb 4f 23 3c 1e 01 79 bb 45 78 cc bb
       -0.009913095 0.009967784 -0.003799505 -0.006239923
0000b0 3d 55 1f 3c c2 06 d5 bb 19 e8 7f 3c 36 fe ba bb
       0.009724912 -0.0065010497 0.015619301 -0.005706574
0000c0 46 1a d5 3b 7a a0 84 3c 57 f2 5e bb 76 06 a2 3c
       0.006503376 0.016189802 -0.0034018958 0.019778471
0000d0 9a 4b e0 ba 65 53 96 bb b3 b9 9f 3c d3 2f b8 3b
       -0.0017112375 -0.004587578 0.019497728 0.0056209355
0000e0 ae e7 39 bc 99 89 95 bc dd a0 ea 3b 16 47 73 bb
       -0.011346741 -0.018254088 0.0071602897 -0.0037121228
0000f0 06 f1 dd 3c 02 ea 7c 3c 4a c7 2f 3c d2 e8 73 3c
       0.027092468 0.015436651 0.010728667 0.014887052
000100 01 1a 67 3c fc f4 1c bc ab a8 c3 bb 16 8e 9a bc
       0.014105321 -0.009579893 -0.0059710345 -0.01886658
000110 44 2a ee bb 14 35 1f 3b d3 bf 6e 3c 52 7d 6a bb
       -0.007268222 0.0024293112 0.014572102 -0.0035780263
000120 e4 3f 1a 3c 77 9d ad 3b b8 67 e3 3b 52 a8 97 3c
       0.009414647 0.0052983123 0.0069398545 0.018512879
000130 88 e6 d2 3b dc 4d a7 3b e6 29 63 bc 23 e5 ff 3b
       0.006436173 0.005105717 -0.01386497 0.0078092976
000140 0d 90 fb 3b 72 e2 34 bc 12 83 52 3c e2 6b 50 3c
       0.0076770843 -0.011040317 0.012848632 0.012721034
000150 12 14 bb bb b8 5e ee bb 17 1c a9 3c 5c 2e 01 bc
       -0.0057091797 -0.007274475 0.020643277 -0.007884588
000160 f0 79 00 3c cd 0c 98 bb 8c 70 5a 3c 2e ba 99 3c
       0.007841572 -0.004640198 0.013332497 0.018765535
000170 ce d5 db bb fc 70 da bb a5 f8 e0 ba bf 68 00 bc
       -0.006708837 -0.006666301 -0.0017163946 -0.007837473
000180 e2 4b fe bb a3 31 58 3b 3e 9a 2b 3c 37 76 91 3c
       -0.007760511 0.003298857 0.010473786 0.017756565
000190 cb 57 fa bb 07 2e 73 3c 03 56 87 3c 78 49 a0 3c
       -0.0076398603 0.014842517 0.016520506 0.019566283
0001a0 4b b9 9c bc d0 4e 7a 3c a4 65 19 bc 20 d7 96 bb
       -0.019131323 0.015277579 -0.009362612 -0.0046032816
0001b0 0c a1 5e bc 64 26 25 bc 2c ac e7 bb d0 aa 9d bb
       -0.013588201 -0.010079954 -0.007070085 -0.004811622
0001c0 3b 1f ad 3a dd e9 8e bc 7d e7 b0 3c 7e 1b 62 3c
       0.001320816 -0.0174455 0.021594757 0.0138005
0001d0 2e 15 84 3c cc 8c 2d 3c b9 ed e1 bb 05 be 64 ba
       0.01612338 0.010592651 -0.006894794 -0.0008725825
0001e0 25 85 95 bb d7 2e 01 bc 2b b6 63 3c a8 a2 62 bc
       -0.004562991 -0.007884703 0.013898413 -0.013832726
0001f0 e4 21 41 3c fd 10 1e 3c c5 2d 97 3b 30 51 69 3c
       0.011787865 0.009647605 0.0046136105 0.014240548

network_body._body_endoder.seq_layers.2.weight f4 [128, 128]
000000 75 2e 96 bd 5d a9 d9 bb e6 3c ff bc c4 c3 85 bc
       -0.0733308 -0.006642504 -0.031156968 -0.0163287
000010 8b 03 6c 3d 6f 8c 58 3d 7a 64 a0 3d bd 65 45 3d
       0.057620566 0.052868303 0.078316644 0.04819273
000020 5f 03 7c 3d f0 6c c2 bd 46 f7 f6 bd d7 a6 54 3c
       0.061526652 -0.094934344 -0.120588824 0.012979231
000030 0a da ac 3d 86 ec 80 bc f8 86 1c 3d d5 57 d8 3d
       0.08440025 -0.015737783 0.038214654 0.10563628
000040 00 e5 05 bc 05 5a ed bc 75 f7 53 bd 14 7c b3 3d
       -0.008172274 -0.028973589 -0.051749665 0.087639004
000050 fd 88 cc bd 1e 76 7e 3c 91 ca 2e 3d bd 34 23 be
       -0.09987066 0.015531091 0.04267365 -0.15938087
000060 df c5 90 ba 25 ea 82 3d cb 78 c1 bd 35 03 35 3e
       -0.0011045298 0.06392316 -0.094468676 0.17677005
000070 e6 dd 6a bc a5 ec af 3d 1a c9 4a 3a bc 26 b1 3d
       -0.014335131 0.08590058 0.0007735655 0.08649966
000080 b3 3e ce 3d 38 dd 22 bd 88 ee 7e 3d e4 2b 4b bd
       0.10070553 -0.039761752 0.0622392 -0.049602404
000090 9b 51 25 be d2 e4 17 3e 04 68 3e be 76 55 fe bd
       -0.16144411 0.14833382 -0.18594366 -0.12418644
0000a0 8b e7 e2 3d a3 48 93 bc 83 4b 08 3d 15 61 ac bd
       0.110793196 -0.017978972 0.03327514 -0.084169544
0000b0 c0 40 a5 3c cb 11 36 be be 72 e7 3d 55 95 46 3d
       0.020172477 -0.17780225 0.11301182 0.048482258
0000c0 65 8c 15 3c 47 8c 84 bd 1b 2f 85 3d 27 e3 db 3d
       0.009127711 -0.06472068 0.06503125 0.10736685
0000d0 94 72 a0 3d b9 65 1e bd 48 dc b0 bc f0 5b 16 be
       0.07834354 -0.03867123 -0.021589413 -0.14683509
0000e0 2d ab f3 3d 23 71 32 bd d4 7a a6 bc 31 a0 53 3d
       0.118978836 -0.043564927 -0.02032224 0.051666442
0000f0 6e a2 3f be 5b 65 6f bd fb d8 9d 3d 9a cf e0 bc
       -0.18714306 -0.05844627 0.07707401 -0.027442742
000100 42 95 31 3c 99 d8 7f bc 2b 43 55 bd 17 84 8b 3c
       0.0108388085 -0.015615606 -0.05206601 0.017030759
000110 49 eb eb bc 0b c7 1f 3d 1e 1c 42 3d 9d fe 3f bd
       -0.028798716 0.03900818 0.047390096 -0.046873678
000120 80 42 fe bd f3 5c b1 3d 68 22 ba 3d c1 12 61 bd
       -0.124150276 0.08660307 0.09088594 -0.054949526
000130 a3 13 82 bd 8b 56 bf bd a4 3c 81 bc 68 8e c2 3d
       -0.06351402 -0.09342679 -0.015775986 0.09499818
000140 df 55 f0 bc d8 fb 9b bd 11 eb 5b bc dd 67 e6 bd
       -0.029337822 -0.07616395 -0.013422743 -0.11250279
000150 6a ed 28 bd 12 d7 35 3b 84 06 ae 3d d0 29 20 be
       -0.04124204 0.00277466 0.084973365 -0.1564095
000160 5a 6e b2 3c be ae 31 bc ed 5d 4b bd fa 97 19 3e
       0.021781135 -0.010844884 -0.04965012 0.1499938
000170 62 ba 7f 3d d0 ba 4d be 4b ed 1c 3e 6c b7 9e 3d
       0.062433608 -0.20090795 0.15324895 0.07749829
000180 b2 ce 25 3c 8c c1 8d 3c 13 87 ac 3c 17 7c db 3d
       0.010120081 0.017304204 0.021060502 0.10717028
000190 52 f2 19 be 0c 57 7c 3e 36 f6 f5 3b 3a 33 35 3e
       -0.15033844 0.24642581 0.0075061573 0.17695323
0001a0 9c e1 bc 3d 24 bf b0 3c b5 b0 61 be 0a 68 b1 3c
       0.09222719 0.021575518 -0.22040065 0.021656055
0001b0 48 7c e3 3d 17 d9 b0 3c 53 2d cf bd 42 bd 90 bd
       0.11107689 0.021587892 -0.10116067 -0.07067348
0001c0 9e cd f2 3b c7 d6 8c bd db 02 21 3d 95 42 95 3c
       0.0074097654 -0.06876903 0.039309364 0.018220225
0001d0 24 8f b3 3a 77 6f 1d 3e 7a ab bc 3d 87 87 8c 3d
       0.0013699275 0.15374552 0.09212394 0.06861787
0001e0 27 27 53 3c cb b5 1e 3e c6 9e 3e 3d 67 86 06 bc
       0.012887753 0.15499036 0.046538137 -0.008210755
0001f0 3d 48 1a bc 52 19 f7 bb 74 f1 c6 bd a1 08 91 bc
       -0.009416637 -0.00754086 -0.09714022 -0.01770431
000200 0a 48 b0 3d ec 23 0a bd 29 d4 cc 3d 8b a5 c7 3d
       0.0860749 -0.033725664 0.10001404 0.09748372
000210 22 d5 9d 3b ff e7 40 3d 1f e7 9a 3d 17 7e a3 bb
       0.004816667 0.04709625 0.07563614 -0.0049893963
000220 0d 77 9b bc d3 1c 52 3d 6e 82 0f 3e 5b 15 de 3c
       -0.018977666 0.05129702 0.14014599 0.027109792
000230 72 95 85 3d 74 71 86 bd 3b 22 10 3e 98 09 eb 3d
       0.06522645 -0.06564608 0.14075558 0.11476439
000240 55 18 9b bc 72 d5 43 3c 6a cb 22 3c 08 07 8a bd
       -0.0189325 0.011952745 0.009936193 -0.06739622
000250 7d 6f b7 3d 62 82 46 3e 86 d4 55 3e ce d5 87 bc
       0.089568116 0.19385675 0.20881853 -0.016581442
000260 5e 9b 0c 3e 91 68 bb bc b5 b7 82 3d b6 17 18 3e
       0.13731143 -0.02287701 0.063826956 0.14852795
000270 15 a9 a0 3d 91 27 7e 3c 89 97 fa bd 57 75 ca bc
       0.0784475 0.015512363 -0.12235934 -0.024714155
000280 97 97 6a bb f9 87 25 3d 5c 61 f9 3d 59 92 06 be
       -0.003579592 0.040412877 0.12176773 -0.13141765
000290 7d 83 30 be e1 8a c6 3c c3 d5 8f 3e 85 00 c2 3d
       -0.17237659 0.024236144 0.28092775 0.09472755
0002a0 83 2d cf 3b 56 0e 99 bd f6 6a 16 3b 37 cc 5f 3d
       0.006322564 -0.074734375 0.0022951937 0.054638114
0002b0 29 88 92 bd c8 27 9b 3d 6f 85 34 3d d1 0c 9e 3d
       -0.07154877 0.07575947 0.044072565 0.07717288
0002c0 dd af d8 3d d0 dc c2 bd 88 9a f7 3d e1 03 b5 bd
       0.10580418 -0.09514773 0.12090021 -0.088386305
0002d0 05 04 09 be bf dc 8c 3d 23 3a e5 3a 52 bc bb 3d
       -0.1338044 0.068780415 0.001748864 0.091667786
0002e0 3f f2 2a 3d 67 c5 12 3e 08 80 c1 bd a6 1a ce bc
       0.04173493 0.14333116 -0.09448248 -0.025159191
0002f0 e8 42 49 bd d5 73 0d be 46 a2 73 bd 85 87 fb 3c
       -0.049136072 -0.13813718 -0.059480928 0.03070427
000300 01 4c 03 3e e7 6b 1d 3d b3 9c bf bc 7d 33 af bd
       0.12821962 0.03843298 -0.02339015 -0.085547425
000310 f0 e8 c4 3a cd 64 52 be 88 31 3f bc ba 24 6a bd
       0.0015023034 -0.20546265 -0.011669524 -0.05716393
000320 7d c8 49 bd 6f 94 df 3d 3d 80 df 3d 9d 6a 32 be
       -0.049263466 0.10916983 0.109131314 -0.17423482
000330 89 df db bd f2 cb 3e 3e 2d 40 9e 3d 75 eb 29 3e
       -0.10735995 0.18632486 0.07727084 0.16593726
000340 f9 59 5f bd 3f 63 1c 3e dd b8 c7 3c 48 c4 a8 bd
       -0.054529164 0.15272234 0.024380142 -0.08240563
000350 62 5d 83 bd 5e 62 04 3e 00 63 ad bc 22 a2 ea bb
       -0.06414296 0.12928149 -0.021165371 -0.007160441
000360 11 7f 20 3e e6 36 a5 bd 4a 03 1e 3e 8d c0 c8 bd
       0.15673472 -0.08067112 0.15430942 -0.09802351
000370 0b a8 08 be 93 70 a5 3c cc ed b4 bc 08 f1 03 3e
       -0.13345353 0.020195281 -0.022086047 0.12884915
000380 7c e3 1e 3d 95 fa 8e 3c a8 96 f4 bc da 11 25 bd
       0.038791165 0.017453471 -0.029856995 -0.040300228
000390 e1 0a 8c 3d 0b 37 87 bd 21 dc 04 be 7f 6f f9 3d
       0.068380125 -0.066022955 -0.12974598 0.12179469
0003a0 1c 04 94 3d 22 7a a1 3d 0f 35 87 ba e0 1d 77 bc
       0.07227346 0.07884623 -0.0010315495 -0.015082806
0003b0 d6 62 ef 3b b8 40 8a 3d 7a 83 1d bd 94 5d 7c 3b
       0.0073054833 0.06750625 -0.038455464 0.0038507925
0003c0 e3 32 d5 bc 09 a2 3f 3d 3e a7 f5 bc 99 63 1b 3d
       -0.026025241 0.04678539 -0.029986974 0.03793678
0003d0 1f c0 bd ba fa be ac bd ac 1d d1 bd fa c7 ee bd
       -0.0014476812 -0.084348634 -0.102107376 -0.11659236
0003e0 d2 e9 42 bd e6 e3 c8 3d c6 a2 95 3d 3c 4f dd bd
       -0.04758627 0.09809093 0.07306437 -0.108061284
0003f0 8b 3f 6f 3d 90 eb c1 bc e2 4e b0 bd f5 53 84 bd
       0.05841021 -0.023671895 -0.08608796 -0.06461326

network_body._body_endoder.seq_layers.2.bias f4 [128]
000000 a6 1c 34 3c bd 23 9d bb 8d db ae bb 2a e9 0c bb
       0.010993158 -0.00479552 -0.005336231 -0.0021501281
000010 45 6d e0 3b 72 72 b0 bb 76 51 98 3c 95 e2 a9 bb
       0.0068489634 -0.0053847367 0.018593531 -0.0051844814
000020 2c e1 6f 3c 11 1e b5 bb 8d 3e 63 bb 1d bc 8b 3c
       0.0146410875 -0.005527266 -0.0034674734 0.017057473
000030 30 66 d8 ba 59 fa 71 3a 0c db 16 bb 7e 37 16 3c
       -0.0016509946 0.0009230725 -0.0023018746 0.009168504
000040 b3 56 78 3c 41 63 db 3b 16 3c 55 bb c6 01 bb bb
       0.015157389 0.0066951816 -0.0032537035 -0.0057069985
000050 e3 dd 32 3c e7 b0 90 3b f1 58 3b 3c a9 26 d1 bb
       0.01091716 0.0044156197 0.0114347795 -0.0063827825
000060 76 a4 fe 3a 9c 0f 03 bc a8 60 f1 bb 0e 2a 1a 3c
       0.0019427675 -0.007999327 -0.0073662587 0.009409441
000070 e3 96 03 3c 59 ca 2b 3c e8 46 20 bc 3b 6f 62 3b
       0.00803158 0.010485255 -0.00978253 0.0034551162
000080 1f 2c 64 3c b8 e5 4e bc e8 5a 9c bb 8d 56 20 3c
       0.013926535 -0.012628011 -0.004771579 0.00978626
000090 07 9c d3 bb fd 2e 36 3c 36 56 30 3c 10 e3 a5 bb
       -0.006457809 0.011119601 0.010762742 -0.0050624683
0000a0 17 1b 2c bb 67 70 01 bc c0 b2 c9 3b bb 2f 89 bb
       -0.0026261264 -0.007900334 0.006155342 -0.004186598
0000b0 dd 88 37 3c e9 30 49 3c af 40 71 3c c5 44 16 3c
       0.011202064 0.0122797275 0.014724894 0.009171669
0000c0 de 32 7b 3b 17 39 1e bc 77 5c 95 ba 7e ac 5a bc
       0.003832988 -0.009657166 -0.0011395355 -0.013346789
0000d0 65 95 18 3c 29 b9 89 3c 0c 0c 79 bb 40 c3 17 3c
       0.009312962 0.016811924 -0.0038001565 0.00926286
0000e0 cf 6d 26 3c 33 85 75 bb ea 6d 6c 3c 52 7f 18 bc
       0.010158016 -0.0037463426 0.014430502 -0.009307699
0000f0 3c 81 05 bc 74 51 48 3c c2 44 08 3a 5f 27 a0 bb
       -0.008148488 0.012226451 0.0005198234 -0.004887506
000100 6e c8 26 bb b4 a9 59 bb a2 c5 40 3c 13 a3 a2 bb
       -0.0025449055 -0.0033212723 0.011765869 -0.0049632876
000110 0c fa 75 3c 80 b7 1f 3c e3 3d 9c bb 3b 65 d0 bb
       0.015013229 0.00974834 -0.0047681197 -0.006359724
000120 03 51 bb bb 2b 01 10 bc 9b 42 8d bb 4c 3f 4f 3c
       -0.0057164445 -0.008789341 -0.0043109185 0.0126493685
000130 49 c9 a8 bb 95 c7 51 3c e6 14 be bb 55 c6 d3 bb
       -0.005150948 0.012803932 -0.005800831 -0.006462852
000140 48 52 85 3c ba 70 3f 3c a8 de 7e ba 87 2a b3 bb
       0.016274586 0.011684591 -0.00097225094 -0.005467716
000150 87 f9 ed bb bd cb 23 bb 47 e1 9b bb 12 82 d7 bb
       -0.007262412 -0.0024993264 -0.0047570798 -0.006576785
000160 85 dc 93 ba f7 ff f4 ba 74 ef 76 ba 81 58 dd bb
       -0.001128093 -0.0018692006 -0.00094198366 -0.0067549353
000170 d4 02 41 3c 8a af 62 bb b2 71 c2 bb d6 24 76 3c
       0.011780459 -0.0034589493 -0.0059339637 0.015023431
000180 7a 2d e4 3b 20 b5 4e 3c 45 a4 e2 3a 1a 2b a9 bb
       0.006963429 0.012616426 0.0017291388 -0.005162609
000190 74 46 38 3c 09 2d 22 3c 56 13 3e 3c 64 6e ea bb
       0.011247266 0.0098984325 0.01160129 -0.007154273
0001a0 e6 22 b5 b8 79 e1 a6 ba f2 1d 2e bb d2 de 92 3b
       -8.637253e-05 -0.0012731991 -0.0026568142 0.0044821287
0001b0 46 b3 4a 3c 04 cd 89 39 e3 63 dc bb 52 22 68 3c
       0.012371844 0.00026283425 -0.0067257746 0.014168339
0001c0 7a d8 8d 3c b7 1c 4f bb af 36 60 3c 2b 47 ad 3b
       0.017315138 -0.0031602809 0.013684913 0.005288025
0001d0 c2 fd 18 3c 6e 23 6d bb 29 d7 2e 3c 5f 18 15 bc
       0.009337844 -0.0036184448 0.010671415 -0.009100049
0001e0 1f 47 04 3c 5e ed ae bb 32 d9 3d 3c 7f b9 b2 bb
       0.008073597 -0.005338355 0.011587428 -0.0054542418
0001f0 7f 6a ed 3b a7 c4 8a bb 61 c3 7d bb c8 97 c4 ba
       0.0072453613 -0.0042348686 -0.0038721191 -0.0014998848

action_model._continuous_distribution.log_sigma f4 [1, 2]
000000 4f 10 dd 3d 6e 44 cc 3d
       0.10794126 0.099739894

action_model._continuous_distribution.mu.weight f4 [2, 128]
000000 eb 4e d2 bc ff 3c 25 bc 3d 49 32 bc e1 f8 11 3e
       -0.025672397 -0.010085343 -0.010881719 0.14255096
000010 80 5b b3 3c 44 f7 9e 3d ff df 63 bd 3c 29 a6 ba
       0.021894217 0.07762006 -0.05563354 -0.0012677084
000020 68 60 d1 bd 86 41 73 3d 0b 5d c8 bc 1f b4 8a bd
       -0.10223466 0.05938866 -0.024458429 -0.067726366
000030 2a 98 40 3c ea c0 7c bd c2 5f d6 bc 44 1d 43 bd
       0.011755029 -0.061707415 -0.026168708 -0.04763533
000040 92 83 bb bd 27 de 20 3c be 3b 8f 3c 07 39 4d 3c
       -0.091559544 0.00981859 0.017484542 0.012525803
000050 40 ee 52 bd f5 c5 88 bd 02 f0 d3 bd 5b 21 5b 3d
       -0.051496744 -0.06678382 -0.10348512 0.053498607
000060 6b dc 1a 3d 96 17 c4 3d db 78 33 3d 4c 7c d8 3b
       0.037807863 0.09574811 0.04381643 0.006606614
000070 68 d2 ed 3c 6a 51 9d bc 21 61 14 3d d6 1e 47 3d
       0.029030994 -0.01920386 0.03622544 0.04861339
000080 fe f9 67 bd c8 7a 35 3d 14 1d 90 3c a6 c2 80 bd
       -0.056634896 0.044306546 0.01759199 -0.06287126
000090 c1 a6 ab 3c a0 64 aa 3b ed 31 d4 bc b0 04 d3 3c
       0.020953538 0.0051999837 -0.025902713 0.025759071
0000a0 ac 92 b6 3d 13 de 46 3d 8c 2f 1e 3d a0 f4 22 3d
       0.08914694 0.04855163 0.038619563 0.039784074
0000b0 04 d1 ff bc 49 1f 88 bd 28 ab 48 bd e9 f4 95 bb
       -0.031227596 -0.06646592 -0.048991352 -0.0045763147
0000c0 1e 31 90 3d 8d 10 df 3c 86 c6 b3 3d af 65 40 3d
       0.07040618 0.027229572 0.087781 0.046971973
0000d0 74 c3 13 bd fa ac 93 bd c1 4f c1 3d fd 8c 05 3c
       -0.03607507 -0.07210727 0.0943904 0.00815129
0000e0 ea 55 10 3b 0a a7 8a 3c 84 8f 99 bd 96 bc 8d 3d
       0.0022023865 0.016925354 -0.074980766 0.069207355
0000f0 c5 2e 8c 3d 08 e4 ba bc 2c c6 91 bc 28 09 b7 3d
       0.06844858 -0.022813812 -0.017794691 0.08937293
000100 2d a2 16 3d 98 c5 d3 3d 5d 6e 2e bd 0b 1d cb 3d
       0.036775757 0.103404224 -0.04258572 0.09917649
000110 ac 60 bc bd 8a e7 c2 bd 0e 80 a6 3d 67 51 33 3d
       -0.09198126 -0.09516819 0.08129893 0.043778803
000120 83 4d 68 3d 9e e3 7f 3d e1 4e b9 3b 3c 1c 9d bd
       0.056714546 0.062472932 0.005655155 -0.07671401
000130 cf 91 d9 3d eb 8a f8 bc e5 8e 39 3d bd c7 e8 3c
       0.10623514 -0.030339679 0.04530229 0.028415555
000140 f8 ca f0 bb 2a fb 9a bd 47 ea 1b bd de 45 8e 3d
       -0.0073484145 -0.07567437 -0.03806522 0.0694692
000150 7b 55 2d 3d 97 92 21 bc 3d 78 6f 3c a1 98 7f 3d
       0.04231785 -0.00986161 0.014616069 0.062401418
000160 f9 1f 21 bc b2 24 f6 3d 2b a8 d3 3d 67 b9 a6 3d
       -0.009834283 0.12018718 0.1033481 0.081408314
000170 a1 ef 70 bc ee fc 19 3b f3 c5 f7 3c e3 54 c9 bd
       -0.0147055695 0.0023496705 0.030245757 -0.09830644
000180 bd 6c d9 3c df 2c 13 bc fe 4e 80 bd 08 71 ad 3c
       0.026541108 -0.008982866 -0.062650666 0.021172062
000190 74 59 11 bc d4 06 d1 bd b9 f6 cf bd 49 ed 45 3d
       -0.008871425 -0.102063805 -0.101544805 0.048321996
0001a0 34 01 04 3d 81 9d 4c bc 35 0e ee 3d 3a 82 c6 3c
       0.03222771 -0.012488724 0.116238035 0.024232019
0001b0 01 3a 6a bc 49 24 57 3d b5 7c 81 3d 6f ae b4 bc
       -0.014296056 0.05252484 0.06322614 -0.022055833
0001c0 fd 93 82 bd 4a 8e 65 bb 22 83 33 bd 0d b6 8e bd
       -0.06375883 -0.0035027438 -0.04382623 -0.06968317
0001d0 1e 80 90 3b d9 6d 93 3c a8 b8 4e bd 14 d6 ba 3c
       0.004409804 0.017996715 -0.05046907 0.022807159
0001e0 38 ba f9 ba f7 05 28 3d e7 6e 9e bd de 3d ab 3d
       -0.001905269 0.041021314 -0.07735997 0.083614096
0001f0 66 2b 20 bd 36 ef 05 3d f2 be 87 3d a4 f4 c6 bc
       -0.039103888 0.032698832 0.06628217 -0.024286576
000200 f3 78 ca bc e9 3a ba 3d 34 1a 45 3d 55 89 64 3c
       -0.024715876 0.090932675 0.048120692 0.013948758
000210 e0 0f 8e bd 1c 0c 65 3d 47 73 36 bd b1 cf 50 3d
       -0.06936622 0.05591975 -0.04454353 0.05097932
000220 5b 22 f7 bb 51 15 bc b9 90 2e 55 3d 42 bf 5f bd
       -0.0075419373 -0.00035874036 0.05204636 -0.054625757
000230 91 b4 c2 3d 42 fc b2 3d 66 9b 88 3d 7d fb a4 bd
       0.095070966 0.087395206 0.06670265 -0.0805578
000240 92 80 8e bc 6b 43 4d bd 62 25 8d 3d b7 2c 1f 3d
       -0.017395291 -0.050113123 0.06891896 0.038861003
000250 ae 0c 70 bd 02 fb 5b 3d 71 15 9b 3b ef 43 57 3d
       -0.058605842 0.053706177 0.0047327806 0.05255502
000260 15 78 47 bd 32 0e 12 3d ce 56 2d 3d 51 e6 ae bd
       -0.048698504 0.03565807 0.04231911 -0.08540023
000270 06 43 b1 bd 4c 32 73 bd 78 97 35 3d 75 df 79 bd
       -0.08655362 -0.05937414 0.044333905 -0.06100412
000280 ec b9 4a bd 11 a3 5e 3d d5 81 3b 3d 3d 8f e9 3c
       -0.049493715 0.05435473 0.045778114 0.028510684
000290 d7 5a a9 3d 44 ce 06 bd cc 3c 98 bd 45 60 81 3d
       0.082692795 -0.032911554 -0.07433471 0.0631719
0002a0 29 0f a1 3c bd d3 0e 3d 19 a6 ae bd 1a 04 b5 3d
       0.01966055 0.034869898 -0.08527774 0.08838673
0002b0 c8 83 0e bd be f1 26 bd 8a 40 a7 bd d5 3a 7c bd
       -0.034793645 -0.040757887 -0.08166607 -0.061579544
0002c0 30 f8 99 bd 67 72 62 3c 66 bc 7d ba b1 38 92 3c
       -0.07518041 0.013821221 -0.00096792576 0.017849298
0002d0 82 b2 aa bc 61 64 82 bd 4c f3 cc 3c f3 f9 c7 bd
       -0.020837072 -0.06366802 0.025018357 -0.09764471
0002e0 d7 bc c0 bd c9 49 b3 3d 51 2f 6f bd a3 1d a2 3c
       -0.09411018 0.08754308 -0.058394734 0.019789523
0002f0 68 d5 87 3d b0 be a3 bd 9f ca 27 3d ab 09 8b 3d
       0.06632501 -0.07995355 0.04096472 0.067889534
000300 fc 9e 92 3d 38 07 14 3c 0c 5a 1b bd 53 2b 94 3d
       0.0715923 0.009034924 -0.037927672 0.07234826
000310 ae f9 6c bd 93 4d 60 3c d1 20 d0 3d 66 1a 8e 3d
       -0.0578553 0.01369037 0.10162509 0.06938629
000320 74 2b ba 3d 03 50 55 3d 4d 6a c1 3d 12 5b 7f bd
       0.09090319 0.05207826 0.094441034 -0.06234271
000330 da d4 72 3d 8b b5 9e bd 83 0a c8 ba a9 4d f8 3c
       0.059285022 -0.0774947 -0.0015261922 0.030310469
000340 0a 64 83 bd ed 0a 2c bc ce 3a 9a 3d a3 26 bd 3c
       -0.06415565 -0.010500652 0.07530747 0.023089712
000350 45 ce 1a 3d 37 c5 9a 3d e4 a3 c6 3d 13 84 e2 3c
       0.03779437 0.07557147 0.096992284 0.027650869
000360 c6 ce 14 3d 80 44 29 3a 98 43 7a 3c 04 1d 30 3d
       0.036330007 0.00064570457 0.015274905 0.04299642
000370 b5 df 4f bd 68 f8 a4 3d fa 9c 82 3d 1d a2 a1 bc
       -0.050750453 0.08055192 0.06377597 -0.019730622
000380 34 87 b0 bd 33 11 16 bd 3c 9a be 3d 60 82 91 3d
       -0.08619538 -0.036637496 0.093067616 0.07104945
000390 9e 9b 9e bd 6b c3 97 3c 58 c9 04 bd 33 45 b8 3d
       -0.077445254 0.0185258 -0.03241858 0.08997574
0003a0 fc 46 44 bd 01 4e 36 3d c8 ba 7d 3c 59 10 65 bd
       -0.04791926 0.044507984 0.015486427 -0.055923793
0003b0 04 5b 93 bd f3 9b 98 bc 4e e8 91 3d 5f e3 95 bd
       -0.07195094 -0.01862905 0.07124387 -0.07318758
0003c0 48 b7 9d bd 14 94 a2 3d b3 93 bc bd 31 23 15 3d
       -0.07700974 0.079384 -0.09207859 0.036410514
0003d0 b8 aa ba bd 09 fa bc 3d 9d 9c bc bd dc dc 16 3d
       -0.09114593 0.09227378 -0.09209559 0.03683172
0003e0 4e 8d 78 bd 99 4e a0 3d 44 4f d7 bd 8c 3d 3a 3d
       -0.060681634 0.07827491 -0.105131656 0.045468852
0003f0 6a 52 45 bd 43 1d cc bc 32 82 9b 3d 6d 07 96 3d
       -0.0481743 -0.024916297 0.07593192 0.07325635

action_model._continuous_distribution.mu.bias f4 [2]
000000 85 28 4b bb 77 cc a2 bb
       -0.0030999493 -0.0049682218

action_model._discrete_distribution.branches.0.weight f4 [1, 128]
000000 dd fe 5a bc 6f 8a 6f bc 1b d7 2d bb 7f 0b 4b 3c
       -0.013366428 -0.0146204075 -0.0026525918 0.012392878
000010 b5 02 17 3c 13 68 8b 3b 2f f6 97 3c 94 f9 05 3c
       0.009216954 0.00425435 0.018550007 0.00817718
000020 62 87 ac 3c d0 ca 23 3c d3 3c 94 bb d0 aa be bb
       0.02106065 0.009997085 -0.0045238524 -0.0058187023
000030 50 92 4a 3c 87 11 14 bc 1c 1c 11 3a 6b cd c1 39
       0.012363985 -0.009037382 0.00055354997 0.00036964877
000040 fc 26 32 bc c2 d1 78 bc e1 3b 2b 3c 70 d5 81 bb
       -0.010873552 -0.015186729 0.010451288 -0.0039622113
000050 a9 5c 91 bc 87 fa 99 3a cf 2c 2e 3c 07 3b 8e bb
       -0.01774438 0.0011747637 0.0106308 -0.0043405327
000060 21 a4 43 ba fe 92 a9 3a 14 ca 8d bb 88 f9 81 3a
       -0.0007463117 0.0012937484 -0.004327068 0.0009916285
000070 37 08 82 bc 04 ef a0 3b da 96 f5 3a f3 b9 a0 b9
       -0.015873058 0.0049113054 0.0018736974 -0.0003065612
000080 8d f0 c4 39 a3 a4 b1 bb a0 5a 9f bb 9f bf 8c ba
       0.00037563258 -0.0054212376 -0.0048630983 -0.001073826
000090 c3 66 c5 bb 56 f0 a1 3a d5 46 da 3b cf 73 6a bb
       -0.006024213 0.0012354951 0.006661276 -0.0035774594
0000a0 ab e5 14 3b 64 7e 1a bc d7 fc f4 3a 14 46 04 bb
       0.00227199 -0.009429548 0.0018691075 -0.0020183371
0000b0 6a 91 0c 3c 64 0e 48 bc 03 4e c5 3b 5a 4e e6 3a
       0.008579591 -0.012210462 0.0060212626 0.0017570958
0000c0 86 db 03 3b d3 bf 7b 3c d2 f3 bf bb fe 63 99 3b
       0.002011986 0.015365559 -0.005857923 0.0046811095
0000d0 b4 43 b2 3b a1 7b ba ba 96 bb 42 bc 82 8a d2 3b
       0.0054401997 -0.0014227518 -0.011885544 0.006425203
0000e0 d7 3f 52 bc e2 3c 0c 3c 53 fd fd bb b1 02 1b 3b
       -0.012832603 0.0085594375 -0.007751146 0.0023652727
0000f0 c5 e5 55 bc f3 83 a9 bc 46 48 19 bc 9f 52 1f 3b
       -0.01305527 -0.020692801 -0.00935561 0.002431072
000100 e4 a3 1d bc 2e 3e a7 bc c8 d8 9f 3a 93 d4 b8 3b
       -0.009621594 -0.020415392 0.0012195343 0.005640575
000110 4a 6e 3f ba d4 78 1e bc b9 57 05 3c 77 96 83 bb
       -0.0007302506 -0.009672362 0.0081385905 -0.0040157395
000120 fe 02 10 bc 57 a4 5c bc 0b 3b 54 bc 87 db 16 bb
       -0.008789776 -0.013466916 -0.01295353 -0.0023019032
000130 c9 7b 82 bb 73 a1 b5 3b 74 8e 27 bc 68 ff 53 bc
       -0.0039820415 0.005542928 -0.010226835 -0.012939312
000140 60 50 34 bc 8d 96 93 3c 4b 3a 19 3c a7 a4 9a bb
       -0.011005491 0.018016124 0.009352277 -0.004719335
000150 af e7 06 3b 24 90 b3 3b 6d 9e 9e 3c 90 63 12 bc
       0.0020584872 0.0054798294 0.019362653 -0.00893487
000160 ba ce 10 3c 5d 25 f6 3b 6f 7b bf 3b 7a e2 3e ba
       0.00883835 0.0075117783 0.005843572 -0.00072816724
000170 4c c4 36 3c 77 19 39 3c b3 87 27 bc 21 9d 09 3c
       0.011155199 0.011297575 -0.010225224 0.008399279
000180 36 04 bd ba 6b 74 5b 3c 65 44 59 3c 3a cc e6 3b
       -0.0014420811 0.013394455 0.013260935 0.0070433887
000190 73 fd a7 bc d8 b6 aa 3a 4b 83 3a 3b af 26 e5 bb
       -0.020506596 0.0013024462 0.0028459604 -0.006993137
0001a0 f7 6b e0 38 40 14 be 3b 8c 97 0b bc bf bd 9d 3c
       0.00010701262 0.005800754 -0.008520018 0.019255517
0001b0 57 68 08 ba f5 3e 1c 3a da e5 8c 3a cb b6 da bc
       -0.0005203536 0.0005960309 0.0010749653 -0.02669849
0001c0 42 f5 c0 3b 27 b0 55 38 d6 53 a5 bb 79 7d b5 3b
       0.005888612 5.0947212e-05 -0.0050453944 0.005538639
0001d0 8b 7f aa bb a7 16 7a 3a 38 ba fe 3b f2 5c f1 3b
       -0.0052031926 0.00095401186 0.007773664 0.0073658163
0001e0 3d 08 5c bb 78 ff 48 3c 32 cf 54 bb de 65 06 bc
       -0.0033574246 0.01226794 -0.003247213 -0.008202998
0001f0 46 8b a0 bb e3 1f 59 3a 7b 08 ad ba f3 8c e5 3b
       -0.004899415 0.00082826446 -0.001320138 0.007005328
